runs/tmp_ckpt_test/checkpoints/best.pt (torch, 271537 bytes, 6 tensors)

gru.weight_ih_l0 f4 [441, 2]
000000 fc 45 c5 bb 4d a2 68 3c 3d 3f e0 bc e5 f6 34 3d
       -0.0060203057 0.014198852 -0.027373904 0.04418077
000010 f2 4f e8 bb 70 62 a4 bd f4 7e 22 bd bb f3 78 bd
       -0.0070896083 -0.08026588 -0.039671853 -0.060779314
000020 c8 a3 2f bd 98 57 1d bd dc 4e 00 bc 11 a1 31 3d
       -0.042880803 -0.038413614 -0.007831302 0.043366496
000030 d6 d1 42 3d d6 b9 e1 ba a1 1f 82 3c 28 f3 8a bd
       0.047563396 -0.0017221521 0.015884222 -0.067846596
000040 37 dd 66 3d 6c 18 cd 3c 51 00 80 3d 67 6b fb 3c
       0.05636331 0.02503606 0.0625006 0.030690862
000050 5e cf 69 bd e6 3b 1c 3d 21 86 98 3d 00 60 0b 3c
       -0.057082526 0.03814306 0.07447458 0.008506775
000060 74 9d 61 3d 13 a0 eb bb 6b 12 56 bd 56 b7 50 3c
       0.0550818 -0.007190713 -0.05226366 0.012739023
000070 0d 3f 3a 3d ef 4f e7 bb c7 fd af ba e1 1b 19 3d
       0.045470286 -0.0070590894 -0.0013427072 0.037380103
000080 97 35 03 3d 41 20 b0 3b 40 c7 7a bd 01 73 1f bd
       0.03203353 0.0053749387 -0.061225176 -0.038928036
000090 d6 c7 86 3c 7b 01 3d bd 83 a5 0c 3d 57 ba 70 3d
       0.016452711 -0.04614399 0.03433753 0.058771458
0000a0 f9 65 8f 3d 31 a6 4d bd 43 24 58 bc e9 a0 17 3c
       0.070018716 -0.05020732 -0.013192239 0.009254673
0000b0 2c 6f b2 3c 76 26 83 bd 30 51 c4 ba bd 02 1e bd
       0.021781527 -0.0640382 -0.0014977809 -0.03857683
0000c0 f5 b2 7d bc 99 06 ce bc b5 26 55 3d 3d a4 42 bd
       -0.015484561 -0.02514963 0.052038867 -0.04751991
0000d0 cb 9c 1f bd 4a 17 57 3d d3 7c 95 3d f4 63 86 bc
       -0.03896789 0.052512445 0.07299199 -0.016405083
0000e0 5c 19 a8 bd be 7c 81 bd 68 b4 91 3d 68 3b 93 3a
       -0.08207962 -0.06322621 0.07114488 0.0011232914
0000f0 45 c7 a6 bd 71 f4 37 3c ff d0 56 3d 47 a0 7d bd
       -0.081434764 0.011227713 0.052445408 -0.06192043
000100 a8 47 b0 bc 77 85 46 bd 86 5d 61 3d 15 05 1c 3d
       -0.021518543 -0.048467126 0.05502083 0.038090784
000110 45 a9 4c bd a1 12 60 bd d0 c4 37 3b a4 ef 9d bd
       -0.049966116 -0.054705266 0.0028040893 -0.077117234
000120 74 94 4c 3d c4 48 73 bd 4e 66 97 3d ed 19 95 3c
       0.049946263 -0.059395567 0.0739256 0.018200839
000130 66 2b cf bc 8a 6d 0c 3c 48 7e 86 3d 0f ee 86 bd
       -0.025289249 0.008571038 0.06567055 -0.06588375
000140 c7 28 8d 3d 91 6d 75 bb 1a bc 9a bd c6 4d 63 bd
       0.06892543 -0.003744934 -0.07555409 -0.055494092
000150 aa f6 a1 bd e8 18 8f 3d a9 a2 71 3d b2 43 96 ba
       -0.079083756 0.06987172 0.058993015 -0.0011464267
000160 3b 88 e0 bc cf b9 ad 3c 64 73 a5 bd 89 7c 26 bd
       -0.02740871 0.021206765 -0.0807865 -0.04064611
000170 b3 66 a2 bd 45 f9 35 3d dc a6 7b 3d 82 50 1b bd
       -0.079297446 0.044427175 0.061438426 -0.037918575
000180 20 c7 71 3c f3 20 8e bd ff 2e 68 bc d9 f0 97 bd
       0.014756948 -0.06939878 -0.014171361 -0.07418985
000190 1e 89 f8 bc 70 18 58 3d 35 39 6d 3d 40 5b be bc
       -0.03033882 0.05275768 0.057915885 -0.02323687
0001a0 88 73 85 bd 1e f5 29 3c 67 cd 38 bd 88 cc 0b 3d
       -0.065161765 0.010373382 -0.045117762 0.034130603
0001b0 2b da 35 bd 0c 07 6f bd d8 07 9b 3c 3d e7 09 3c
       -0.044397514 -0.05835633 0.018924639 0.008416948
0001c0 dd 98 9f bd 5b da 0a 3d 51 a3 7f bc f2 df 49 3b
       -0.07792828 0.033899646 -0.0156029025 0.0030803648
0001d0 b5 31 5f 3d 46 a7 8d 3d 8f 20 64 bd 82 fd 6d 3c
       0.054490764 0.069166705 -0.055695113 0.014525773
0001e0 06 c6 90 3d 96 9e 38 bd 64 50 85 bd 10 79 59 3c
       0.0706902 -0.045073114 -0.06509474 0.013273492
0001f0 62 49 28 3b 12 c9 be 3c 9e 61 58 3d de 7f b6 3c
       0.0025678505 0.023289237 0.05282747 0.022277769
000200 11 f2 5e 3d 67 c6 9e 3d 15 bd 64 3d f6 58 08 bd
       0.05443007 0.07752686 0.055844385 -0.033287965
000210 72 f7 76 3c 0b 4b 8f bc 7b 24 81 3b 2c 00 9e 3b
       0.015073644 -0.017491838 0.0039411164 0.004821798
000220 2d 4e ff 3c da ea 8e bc 03 cf 51 3d 23 e9 5e 3b
       0.031165207 -0.01744597 0.051222812 0.0034013472
000230 b9 42 22 bd 46 b3 0e 3d 7a 06 90 bc ae 49 66 3d
       -0.039614413 0.034838937 -0.017581213 0.05622261
000240 14 5c 83 bc 52 e8 83 3d 53 26 0d bd 57 96 93 bc
       -0.016035117 0.06440796 -0.034460377 -0.018016024
000250 83 11 dc bc 2d 92 86 3d 69 72 00 bc 84 37 22 bd
       -0.026863819 0.065708496 -0.0078397775 -0.039603725
000260 c7 1a 9a 3c 54 5b 87 bb 2d 0d 00 3d 3a d4 73 3c
       0.018811597 -0.00413076 0.031262565 0.014882142
000270 73 72 7a 3d 2b 84 3d 3d 3f 36 ef 3c 1c b6 e3 3c
       0.061144304 0.046268623 0.029200671 0.027796797
000280 1f 13 66 3d 3a 2a 5a 3c 22 d9 9b bb ae 4a b4 3c
       0.05617058 0.013315732 -0.004756109 0.022008266
000290 75 59 12 3d 61 10 95 bc ce c8 41 3d 82 78 85 bd
       0.035729844 -0.018196287 0.047310643 -0.06517126
0002a0 95 23 4c bd 58 ff 74 3d bf 0d 4f bd 3a 59 68 bc
       -0.04983862 0.059813827 -0.05055022 -0.0141814295
0002b0 38 20 e4 3b be fd 0c 3d a4 3b 83 bd 7e e4 40 3d
       0.0069618486 0.034421675 -0.0640786 0.047092907
0002c0 b2 6c 12 bd 2a e5 63 3d fc 02 80 bd 0d 1c 1e bd
       -0.03574819 0.05563847 -0.06250569 -0.03860097
0002d0 f8 a1 90 ba 1f 81 57 3c c1 84 b3 3b f8 42 88 bd
       -0.0011034599 0.013153343 0.005478472 -0.06653398
0002e0 53 7a 82 bd ac 51 d7 bc 73 20 78 bc ef 9b 3e 3d
       -0.06370988 -0.026284061 -0.015144455 0.04653543
0002f0 c8 a1 48 bd ed 0f 24 3c 7f b9 84 bd ff 36 75 3d
       -0.04898241 0.010013563 -0.06480693 0.0598669
000300 55 92 ec 3c f8 5d 1a 3d 9e 87 8f 3d ae 2e 12 bd
       0.02887837 0.03768727 0.07008289 -0.03568905
000310 0a ee a4 3b 33 08 82 3d 67 d6 9f 3d a2 70 6d bc
       0.0050332593 0.0634922 0.07804566 -0.014492186
000320 e4 be 96 bd 4c 9a 77 3b 7b 4e 65 bd fa 89 a4 3d
       -0.07360628 0.0037781177 -0.055983048 0.080341294
000330 47 7c 77 bc 49 76 80 bb 1a 97 77 bd 03 16 57 3d
       -0.015105314 -0.0039203507 -0.060446836 0.052511226
000340 ee 41 9c 3d 5f 0f 3e bc 4a f2 9e 3c 63 01 aa 3c
       0.076297626 -0.011600344 0.019402642 0.020752614
000350 50 ae a3 3c a6 25 9e bd ce 45 2e 3d 1d 03 a2 3c
       0.01998058 -0.077220246 0.04254704 0.019776875
000360 f4 a5 e2 bc a3 83 58 3d ea 11 f2 bc 6f 29 34 3d
       -0.027667023 0.052859914 -0.029549558 0.043984827
000370 d0 36 21 3b 76 51 f8 3c 86 31 9c bd 28 32 6d bd
       0.0024599321 0.030312281 -0.07626633 -0.05790916
000380 b8 1c 94 3c 64 bb 60 bc e8 97 9e bd a1 a0 48 3d
       0.0180801 -0.013716552 -0.077438176 0.048981313
000390 c0 a7 b2 bc 64 95 61 3d 39 35 01 3d f4 f1 0a bd
       -0.021808505 0.05507411 0.031544898 -0.03392215
0003a0 60 04 55 bd 95 7c 92 3d a0 31 46 bd fb 6c 1b 3d
       -0.052006125 0.071526684 -0.04838717 0.03794573
0003b0 bc 33 9e 3d 29 0c 88 3b a2 0b 91 bd f4 2e 01 bd
       0.07724711 0.00415184 -0.07082297 -0.03153892
0003c0 ef 78 8c 3d e3 60 4f 3c 9f 30 dd bb 52 79 c3 3c
       0.06859004 0.012657377 -0.006750181 0.023861561
0003d0 f7 4e 35 3c 45 d4 73 bc 6f ef 60 bd 1e 49 dd bb
       0.01106619 -0.014882152 -0.05491584 -0.006753101
0003e0 87 51 09 bd 88 d8 91 3d 4b cb 5c bd 28 53 b1 3c
       -0.033525016 0.07121378 -0.053904813 0.021646097
0003f0 09 ff b8 3c 54 37 cd bb 90 cd ad bc 90 9d 9d 3d
       0.022582548 -0.006262699 -0.021216184 0.07696068

gru.weight_hh_l0 f4 [441, 147]
000000 70 19 8f 3d 59 fd 89 3d b1 7b 8e bd 33 bc 8e 3d
       0.06987274 0.06737775 -0.06957186 0.0696949
000010 a9 54 18 bd f0 18 85 bd fc 8e 41 bd 1a 5f d9 bc
       -0.037190113 -0.06498897 -0.0472555 -0.026534606
000020 87 13 10 bc 85 00 39 bd 29 67 a5 3d ac a1 0e bd
       -0.008793718 -0.04516651 0.08076317 -0.03482215
000030 b0 d3 a7 3b 90 e9 b3 bc ca 1a 0a 3d cc 2e 70 3d
       0.0051216707 -0.021961957 0.033716954 0.05863838
000040 e3 69 6c 3d e0 da 22 3c 10 8a 65 bd 41 f1 a4 bc
       0.05771817 0.009939879 -0.05603987 -0.02013457
000050 80 3b 36 3d 69 74 9a bc 6a 0b 13 3d b2 20 4c bd
       0.044490337 -0.018854337 0.035899557 -0.04983587
000060 5b 29 c9 bc 2d de d7 3c b4 e5 80 bd b1 d3 6a 3a
       -0.024555853 0.026351059 -0.062938124 0.0008957936
000070 90 b8 56 bd 96 0d a6 bd 75 17 29 3d 50 13 52 3d
       -0.052422106 -0.0810806 0.041282136 0.05128795
000080 97 b0 2c 3d c6 cc 6d 3d 5c 73 36 3d ca dd 14 bd
       0.042160597 0.058056615 0.04454361 -0.036344327
000090 db 77 0a bd 46 7a ab 3c 4a 48 21 3d 4f 4e c9 3c
       -0.03380571 0.020932328 0.03937558 0.024573473
0000a0 01 08 c2 3b 8a ea 4e bd 18 3c 02 bd 8c 66 a2 3d
       0.0059213643 -0.050516643 -0.03179559 0.079297155
0000b0 75 a4 05 bd d7 85 82 bd 40 36 9c bb 3c e1 8a bd
       -0.03262754 -0.06373184 -0.0047672093 -0.06781241
0000c0 a4 07 7d bd 82 15 c2 bc 4d 23 96 bd 4c 99 97 bd
       -0.061774865 -0.023691896 -0.07330952 -0.07402286
0000d0 b6 f9 c7 3c de 08 5b bd 4c 74 96 3d 2b 5f 98 bd
       0.024411064 -0.053475253 0.073464006 -0.07440027
0000e0 bd 44 98 bd e3 3b 4d bd c2 21 1d bd 7e d9 72 3d
       -0.07434986 -0.05010594 -0.038362272 0.059289448
0000f0 2c a1 95 bd 0c 76 2f 3d 96 59 9d bd d6 1a c7 3c
       -0.07306132 0.042837188 -0.07683103 0.024304789
000100 5b ad cd 3c 56 6a 10 3c b0 76 42 bd 8b 89 83 3d
       0.025107076 0.008814415 -0.04747647 0.064227186
000110 5f cb 51 3d 2e 5e 9a 3d 32 a2 9b 3d 43 f8 98 bd
       0.05121934 0.075374946 0.07599296 -0.07469227
000120 10 e1 73 bd 6f 36 5a bb 07 b7 f6 bc f9 b2 8e 3d
       -0.05954081 -0.0033296605 -0.030116571 0.0696773
000130 35 75 a4 bd 88 20 78 bc 0c 76 80 3d 56 c8 94 3c
       -0.08030168 -0.015144475 0.06272516 0.018161934
000140 46 24 df bb 74 97 9c 3c ac 63 98 3d ab 4f 91 3c
       -0.006809744 0.019115187 0.07440886 0.017738184
000150 a5 55 a4 3d 9f e7 0d bd dc 50 8f bd 2b 77 7f bd
       0.08024148 -0.03464472 -0.069978446 -0.062369507
000160 22 ad 00 bc 87 02 d8 3b 0d 83 0d bd 31 b5 dc 3c
       -0.007853778 0.006592098 -0.034548808 0.026941868
000170 ac 15 a3 bd 5a 1d 44 3c 77 5a 84 3d 3a d9 a8 3c
       -0.07963118 0.011969889 0.06462567 0.020611394
000180 7b 29 78 3b 27 9a 7d 3d 09 b4 eb 3a e1 39 a8 3d
       0.003786652 0.06191459 0.0017982732 0.082141645
000190 47 6a ad 3c 13 f4 a0 3d f1 c7 cf bc 91 e9 f0 3c
       0.021168841 0.078590535 -0.025363894 0.029408248
0001a0 d7 ad 59 bd 14 9a 93 bd 4c a0 41 3d 70 49 9b bd
       -0.053144302 -0.072071224 0.04727201 -0.075823665
0001b0 cd 9b 98 bd 3e 30 97 3b 92 f4 1f bc a7 9a 3a 3d
       -0.07451592 0.004613905 -0.0097629 0.045557644
0001c0 c1 35 86 bd 15 52 02 3d 0d 75 0e 3d ac 84 21 bc
       -0.065532215 0.03181656 0.034779597 -0.009858292
0001d0 7c 2b 25 3b 21 a8 0b 3d b8 c7 88 bd 94 79 30 3c
       0.002520292 0.034095887 -0.06678718 0.010771174
0001e0 35 12 9b bd cb df 53 3d 45 ab 84 bc 83 eb ef bc
       -0.07571832 0.051727097 -0.016194949 -0.029287105
0001f0 fc 36 2f 3d 25 59 66 bd 87 5b 37 bc c7 e7 98 3d
       0.042777047 -0.05623736 -0.011191255 0.07466083
000200 fa 9c 7c bd e8 41 65 bd b2 0f e2 3b ab 74 a4 3d
       -0.061673142 -0.055971056 0.0068988437 0.08030065
000210 29 3c 29 bc 37 dd a4 bc e0 45 ba bc 23 69 a8 3c
       -0.010329285 -0.020125015 -0.022738397 0.020557946
000220 a7 7d 6c bd 7a 82 b4 bc 98 37 49 3d de 8c 04 3d
       -0.05773702 -0.022034872 0.049125284 0.032360904
000230 90 7c 6a bd 4b a2 ba bc 7c 8e 87 bc 70 74 d1 bc
       -0.0572477 -0.022782465 -0.016547434 -0.025568217
000240 07 ab 1b b9 bf 45 3b bd f4 16 71 3c 45 72 18 bd
       -0.00014845665 -0.045720812 0.014714945 -0.03721835
000250 7b a4 1b 3d 7e 47 58 bd 23 bd 58 bd 27 21 e6 ba
       0.037998658 -0.052802555 -0.05291475 -0.0017557488
000260 35 44 5a bd d0 cf c1 3c 18 d5 94 bd 75 68 d1 39
       -0.053287704 0.023658663 -0.07267207 0.00039941413
000270 8c 78 27 3d 89 64 a4 bd 3c 28 65 bc 5e 28 49 3d
       0.040886447 -0.08026988 -0.013986643 0.049110763
000280 30 c8 1d 3d bd 90 35 3c f9 21 98 3d 20 f2 86 3c
       0.03852099 0.011081872 0.07428355 0.016472876
000290 9f 29 89 3b 37 ee 24 bd 69 65 86 3d e3 2c 84 bd
       0.00418587 -0.040266242 0.06562311 -0.06453874
0002a0 07 48 68 bd af bc 9d bc 0c 31 45 3d 54 41 9d 3d
       -0.056709316 -0.01925501 0.048142478 0.07678476
0002b0 61 22 d9 3c b5 3f 62 3d 97 3b 54 bc 08 19 4e bd
       0.026505651 0.055236537 -0.01295366 -0.05031684
0002c0 3c 15 46 3d ec b5 91 bc 67 ce 3e 3d 9e fe 46 3d
       0.048360094 -0.017786942 0.04658356 0.048582666
0002d0 68 35 84 bd 9d 10 c6 3c b0 fa 27 bd 84 1f 15 3c
       -0.06455499 0.024177844 -0.04101056 0.009101752
0002e0 95 cb 17 bd 09 59 91 bd 26 e8 17 bd 90 07 8b bc
       -0.037059385 -0.0709706 -0.03708663 -0.01697138
0002f0 ce fb 08 3c 40 6c 72 bd aa ba a4 3d 2b 53 2e bd
       0.008360816 -0.059185266 0.08043416 -0.042559784
000300 bf 04 17 3d 80 ce 94 bc 5d 73 a7 3d 80 3b e4 3c
       0.03686976 -0.018164873 0.08176301 0.027860403
000310 b0 ec 6b 3d bb 20 84 bd ce ac a6 bc 43 59 e0 bc
       0.05759877 -0.06451555 -0.020346072 -0.027386313
000320 9e 81 a3 bd 9d 22 d2 3b ad f2 8d bd 47 49 89 bd
       -0.07983707 0.0064128176 -0.06931052 -0.0670343
000330 94 b1 68 bd 68 2f 6b ba 57 bd 9c 3d 45 0e 1f 3d
       -0.056809977 -0.00089716027 0.07653301 0.038831968
000340 b5 38 33 3b 98 b8 9c bd cf eb 39 bc db a7 86 bb
       0.0027347032 -0.07652396 -0.011347725 -0.0041093654
000350 53 64 54 bd 09 9b 5c 3d 33 97 ec bc 85 2d 82 3d
       -0.05185349 0.05385879 -0.028880691 0.063563384
000360 7e 02 05 3d 78 96 8f 3c 30 b1 61 bd dd ce ff bc
       0.03247308 0.017527804 -0.05510062 -0.03122657
000370 ac 76 a4 3d e2 01 37 bd ee fb ae bc c7 b3 17 3d
       0.08030447 -0.04467953 -0.021360364 0.037036683
000380 71 54 0a bc 15 d0 35 bc 1e 82 18 3c 4f 0d 79 bd
       -0.008442984 -0.011096974 0.009308366 -0.060803708
000390 1e 0b a5 bd 56 53 10 3d 26 ea 4c bd cf e9 cb bc
       -0.08058761 0.035235725 -0.05002799 -0.024891762
0003a0 79 1c a3 bd a6 66 52 bd 67 2d 37 3d 4e 7a 70 3d
       -0.07964415 -0.051367424 0.044721033 0.05871039
0003b0 6e ec 14 3d 79 f4 7f bd 83 b3 97 bd 89 70 01 3d
       0.03635829 -0.062489007 -0.07407286 0.031601463
0003c0 dc e9 90 bd fb 58 69 3d b9 ad 81 3c 8e 9d 73 3d
       -0.07075855 0.056969624 0.015829908 0.059476428
0003d0 a5 04 e5 bc 1e fa 42 3c 54 f6 46 3d 03 ff 90 bd
       -0.027956316 0.011900453 0.04857476 -0.070798896
0003e0 53 93 18 bd 99 8d 96 ba e9 31 a2 bd 23 99 50 bd
       -0.037249874 -0.0011486291 -0.07919676 -0.050927293
0003f0 94 8c 3c bd 16 73 56 bc bc 92 aa bb af ac 6b 3d
       -0.046032503 -0.013088962 -0.0052054804 0.05753773

gru.bias_ih_l0 f4 [441]
000000 1a 44 8e 3c 89 f0 a6 bd 1d 55 ec bc ff ab 3e 3c
       0.017366458 -0.08151347 -0.028849179 0.011637687
000010 2a b1 dd 3c cd 9a 8f 3d c2 28 89 3d 6e 2d 8e 3d
       0.027062017 0.07011948 0.06697227 0.06942259
000020 e5 ef 9b bd b4 1b 90 bd 17 99 0f bd c5 4a e2 bc
       -0.076141156 -0.07036534 -0.035058107 -0.027623544
000030 9e 21 24 bc 28 63 2b 3b 5d bb 39 3d fe ae d8 bc
       -0.010017781 0.002615163 0.0453447 -0.02645063
000040 49 00 08 bd 4d cc 61 3d d1 c7 e4 bb 46 ab 15 bc
       -0.033203397 0.055126477 -0.006981828 -0.009135073
000050 63 8e 92 bc c0 bd 92 3d d8 fa df 3c 87 f5 8c 3d
       -0.01789016 0.07165098 0.027341291 0.06882768
000060 53 e1 fe 3c d4 88 99 3d fb 5c a7 3d fa c1 50 3d
       0.031113302 0.07496801 0.081720315 0.05096624
000070 58 e4 b6 bc 45 03 0d bd c0 e6 59 bd 65 b4 01 3d
       -0.02232568 -0.034426946 -0.053198576 0.03166618
000080 ee e4 a8 3d 23 a0 e5 3c 14 ab a5 3c 3f 5f 87 bd
       0.0824679 0.02803046 0.020223178 -0.066099636
000090 1f 7a 8a 3d 05 c6 9c 3d ac 2e 4b 3d 52 8c 62 39
       0.06761574 0.07654957 0.049605057 0.00021605313
0000a0 32 de 66 bd 85 85 d6 bc 2e d4 e5 bc 88 5a 83 ba
       -0.056364246 -0.026186714 -0.028055277 -0.0010021487
0000b0 71 2d bd bc 53 19 81 bd aa 1b a0 3b 62 77 6f b9
       -0.023092957 -0.06303658 0.0048861103 -0.0002283729
0000c0 ed 18 69 bd 4e 80 38 3d c0 4d 3f bd 9c 06 9b bd
       -0.056908537 0.045044236 -0.046705008 -0.0756962
0000d0 e4 da 0a bd 69 74 a4 3d ef 84 32 3d c8 18 5d bc
       -0.033900157 0.08030016 0.043583807 -0.013494678
0000e0 b2 7b 34 3d ed 63 95 bd 42 8d 61 3d 18 39 18 3d
       0.044063278 -0.0729445 0.055066355 0.037163824
0000f0 f6 26 13 bd a1 23 9a bd 98 f3 9a bd a3 b3 e6 3a
       -0.035925828 -0.07526327 -0.07565993 0.0017601143
000100 3f 03 67 bd e2 d5 8c bd de 79 88 bd 94 06 32 bd
       -0.05639958 -0.068767324 -0.06663869 -0.043463305
000110 57 a7 22 3d bd 89 22 bd fa 5c 71 bc 82 46 92 3c
       0.03971037 -0.03968214 -0.01473164 0.017855886
000120 41 a9 ca 3c 27 43 92 3d bc 97 a2 bd ab a6 a7 bd
       0.02473891 0.071417145 -0.07939097 -0.08186086
000130 ea fb 8e 3d 75 d8 71 3d c5 41 6b 3d 0e 64 86 3c
       0.069816425 0.05904432 0.05743577 0.016405132
000140 0e 1d 1d 3d bd 24 75 bd 99 0b a1 3d ed 94 29 bd
       0.038357787 -0.05984949 0.0786354 -0.041401792
000150 8f 41 47 bd ca a1 31 3d a3 91 a2 bc 85 cc 23 bd
       -0.048646506 0.043367185 -0.019844836 -0.039989967
000160 ad 78 ea 3c 79 56 23 3c 43 b0 30 3b 1b 71 93 bd
       0.028621996 0.009969347 0.002696053 -0.071993075
000170 18 1e 86 bc 02 db 43 3d 1d 14 9f 3d 4e b5 85 bd
       -0.016371772 0.047816284 0.07767508 -0.06528722
000180 85 b6 01 bd 5a 38 1c 3c c3 92 86 bc f2 f2 78 bd
       -0.031668205 0.00953492 -0.016427403 -0.060778566
000190 63 2c e1 bc 2e 50 73 bc 14 48 92 bd 2b ea 88 bd
       -0.027486986 -0.014850659 -0.07142654 -0.06685289
0001a0 7b 0b 3d bd 8f 53 73 3c 84 c3 35 3d cf 98 e9 bc
       -0.046153527 0.014851465 0.04437591 -0.028515248
0001b0 c6 ed 47 3b 97 3d 41 3d 09 fa 83 3d a6 4f 85 bd
       0.0030506714 0.047177877 0.06444175 -0.06509332
0001c0 60 46 57 bd 7c dd 91 bd 4d 59 47 3d ab 4a 14 bd
       -0.05255735 -0.07122323 0.04866915 -0.03620402
0001d0 fc 7b 9c 3c 46 3d a6 bd d8 a5 22 b7 7d 0c 01 bd
       0.01910209 -0.08117156 -9.694566e-06 -0.03150605
0001e0 7c c4 45 3d 7f 6e a7 bd ff 43 fb bb 13 9c 11 bd
       0.048283085 -0.08175372 -0.007668018 -0.035549235
0001f0 2e c5 55 bc 3d 6d 9c bd d7 fa 67 3d 97 07 3f bd
       -0.0130475 -0.07638023 0.056635704 -0.046638098
000200 03 58 4a bd d5 7d 35 3d e8 8f 68 3d ea 6a 13 bc
       -0.04940034 0.044309456 0.056777865 -0.008997658
000210 c4 d3 8b bd a9 0d 00 3c 99 16 41 bd cc 9b 17 3a
       -0.068275005 0.007815757 -0.04714069 0.00057834084
000220 6e 37 2a 3c 4b 4c 22 3d 77 3b 22 3d 58 c6 71 bd
       0.010389192 0.03962354 0.03960749 -0.059027046
000230 89 33 88 bd 8e 4b 39 bc 3f 38 87 bd 96 96 16 3d
       -0.066504546 -0.011309518 -0.06602525 0.036764704
000240 09 24 a3 bb 53 a5 0e bc 88 d8 81 3d 1c 2c 4c bd
       -0.004978661 -0.008706409 0.06340128 -0.049846753
000250 44 ed 1e 3d eb bf 83 bc db 71 96 3d c7 f9 51 3d
       0.038800493 -0.016082725 0.07345935 0.051263597
000260 c1 bc 7d 3d ed b2 3b 3d a1 7e dc 3b 09 75 06 bd
       0.061947588 0.045824934 0.0067289625 -0.032826457
000270 47 bf 00 3b 2f 21 0f bd 4d d9 61 3d 4e e6 8a bc
       0.001964526 -0.034943756 0.055138875 -0.016955521
000280 ee 98 81 3d c6 82 92 3d 08 d7 8e bd be a5 d1 3c
       0.06327997 0.07153849 -0.06974608 0.025591727
000290 57 50 a2 bd 9d fe 55 3d 69 72 39 3d 89 ff 46 3c
       -0.0792548 0.05224477 0.045275126 0.012145885
0002a0 6c aa 3b bd b7 24 38 3d 11 68 3b bd c9 92 78 bd
       -0.045816824 0.04495689 -0.045753542 -0.06068686
0002b0 68 0d 6b 3d 6f 74 ba bb 52 9e a5 bd 4a ae 5b 3d
       0.057385832 -0.0056901495 -0.08086838 0.053633012
0002c0 6a a7 90 bc 2d 1e af 3c 51 b5 82 3d 08 38 3e bc
       -0.017657954 0.021376694 0.063822396 -0.011610039
0002d0 01 ba 40 3d 0b 93 e2 3c d9 dd 89 3d 7c 43 2e 3d
       0.047052387 0.027658006 0.06731767 0.042544827
0002e0 36 f1 8a 3d d4 1c 5e 3d 11 0b 43 3b 4b b2 88 3d
       0.067842886 0.05422671 0.0029761235 0.06674632
0002f0 78 61 a2 3c 2c 1e 59 3c 13 4a f6 bc 6c 96 f1 3c
       0.019821867 0.013251822 -0.030064618 0.029490672
000300 ab f7 a4 3c 0a a5 48 3c 31 71 09 bd 4f 40 7b bd
       0.020137629 0.01224638 -0.033555213 -0.061340626
000310 81 5e 46 bd 84 d2 91 bd e3 42 4d 3d 44 73 99 3c
       -0.04842997 -0.07120231 0.050112616 0.01873172
000320 02 e3 53 3d a8 eb 49 bc 53 11 33 bd 84 f1 44 bd
       0.051730163 -0.012324251 -0.043717694 -0.04808189
000330 11 2e 61 3d 4f bd 28 bd 81 14 90 bd 76 ff 56 3b
       0.054975573 -0.041196164 -0.07035161 0.0032806075
000340 7e 6f 99 3d 80 af 14 3d b1 79 0e 3c 81 fd 53 bd
       0.074919686 0.036300182 0.008696006 -0.051755432
000350 07 87 03 3c 8d a9 4c 3b 7c 49 bd bc 66 a6 50 bd
       0.0080277985 0.003122899 -0.02310633 -0.05093994
000360 8d 84 1b 3c 2f eb e9 3c 0a c7 1b 3d 42 34 a1 3c
       0.009492052 0.028554527 0.038031615 0.019678239
000370 36 0d 3f 3d 57 b8 45 bd 58 09 c2 bc 1f 8e 7a 3d
       0.04664346 -0.048271503 -0.023686096 0.061170693
000380 cf f7 a1 bd b3 a1 82 3d 94 fe f0 3b 90 db 07 bd
       -0.07908594 0.06378498 0.007354567 -0.033168375
000390 ca c1 e2 bc de a4 29 3d 30 d0 5b bc 15 f0 8d bd
       -0.027680296 0.041416995 -0.013416335 -0.06930558
0003a0 e8 34 b7 3c 46 b6 fe 3c 48 08 36 bd d7 77 5d bc
       0.022364095 0.031092774 -0.04444149 -0.013517342
0003b0 59 59 20 3d 4c be 8f 3d 50 4a 9c 3d fe a5 ad 3a
       0.03914771 0.07018718 0.076313615 0.0013248322
0003c0 66 fb 52 bd 57 a2 04 3c 49 51 9e 3d 2b 8d a7 bb
       -0.051509283 0.008095345 0.07730348 -0.005113264
0003d0 e9 c0 e1 bc a8 5d 8d 3d 89 62 58 bd 2f cf 28 bd
       -0.027557807 0.06902629 -0.052828345 -0.04121321
0003e0 b5 75 92 bd a8 aa 1e 3c 10 4f 9d 3d ac 01 93 bd
       -0.07151357 0.009684242 0.076810956 -0.07178053
0003f0 28 5f 0f 3d c1 63 86 3d 1e 34 b2 bc 1e ff 25 3d
       0.035002857 0.06561995 -0.021753367 0.0405265

gru.bias_hh_l0 f4 [441]
000000 6a ca e4 3c d2 fe 81 bc aa 1d 94 3c 6b 44 bf 3b
       0.02792855 -0.015868578 0.018080551 0.0058370135
000010 a1 82 46 3d 4e 28 c9 bc f1 f6 99 bc 27 30 4c 3d
       0.04846442 -0.024555352 -0.018794509 0.04985061
000020 97 7d 66 bd c3 2f d6 bc 3b 49 29 bb af 71 76 3d
       -0.056272116 -0.026145821 -0.0025831002 0.06016701
000030 8e 8f d7 3b d1 fc 84 3d 1c 73 70 3b 58 9b 94 3b
       0.0065783923 0.064935334 0.0036689704 0.00453512
000040 2c 55 89 3d a8 16 8a bd 30 2c 16 bc 29 bf 82 3d
       0.06705698 -0.067426026 -0.009165809 0.06384117
000050 50 07 5b 3d d2 45 5b 3d 5d 87 4d 3d fb 72 a4 bc
       0.05347377 0.053533383 0.05017792 -0.020074358
000060 df 8e 87 bd 4f c6 ca bc da 30 07 3c 62 ec 7d 3d
       -0.066190474 -0.024752764 0.008251393 0.06199301
000070 02 7e 7d 3d fe 7f 2a bd bb 04 66 bd bf ee a4 bd
       0.06188775 -0.04162597 -0.056156855 -0.0805335
000080 00 9e 99 bd 51 23 fb bc 0a 63 b6 3c f2 a6 03 bd
       -0.07500839 -0.030656489 0.022264022 -0.032141633
000090 36 10 b3 3b b0 ef 11 bd 7b 5e 00 bd 57 42 0b 3d
       0.005464579 -0.035628974 -0.031340104 0.033998813
0000a0 0b 7f 4d bd 90 3f 01 bd 3b 0f 36 3d d7 ac 9e bc
       -0.050169986 -0.03155476 0.04444812 -0.019369526
0000b0 5a c6 a7 3d 78 04 21 3d cc 74 a6 3d 29 84 89 3d
       0.081921294 0.039310902 0.08127746 0.06714661
0000c0 dc 32 00 bd 8d da 42 bd 46 71 a5 3d 52 e6 7f 3d
       -0.031298503 -0.047571708 0.08078246 0.06247551
0000d0 ad a6 a4 3d 4b a8 05 bd a3 b7 1c 3d 7f 42 05 bd
       0.080396034 -0.0326312 0.038261067 -0.03253412
0000e0 eb 10 57 3d 2d aa 55 bd 32 fa b7 3c 17 28 1e 3c
       0.05250637 -0.052164245 0.02245817 0.009653113
0000f0 82 a6 01 3d 5d d3 93 bd c5 fa 5f bd 3f 56 cf bc
       0.031652935 -0.07218049 -0.05468251 -0.02530968
000100 31 81 64 3d cb 86 6e 3d e4 e0 52 bc 27 7f 88 3d
       0.05578727 0.058234017 -0.012871001 0.066648774
000110 91 d6 92 bd 5c 59 fb 3b fe 2e 3b 3d 58 f1 80 bc
       -0.071698315 0.0076705646 0.045699112 -0.015740082
000120 33 72 f0 3c 63 d7 fb bc 1f 98 9e bd f1 4f 99 39
       0.02935133 -0.030742353 -0.077438585 0.00029241995
000130 53 32 3c 3d bd a2 95 3d a0 95 91 3d 12 96 0d 3d
       0.04594643 0.073064305 0.07108617 0.034566946
000140 e7 21 7e bd 31 e6 04 3d e9 c1 8d bc 3e a5 5d 3c
       -0.06204405 0.03244609 -0.017304378 0.013528166
000150 75 82 0b bd 15 be e1 bc 47 6a a6 bd 01 64 9f bd
       -0.03405996 -0.027556458 -0.081257395 -0.07782746
000160 be 04 12 3d 3f ad d7 bc 4c 6f 9a bb 9a 97 75 3d
       0.035649054 -0.026327727 -0.0047129747 0.05995903
000170 b5 b4 4a bd b9 cc a7 3d f1 17 84 bd 32 3f 63 bd
       -0.049488742 0.081933446 -0.06449879 -0.05548019
000180 a6 db 9e bd 99 7f c5 3c b0 09 0b bd 67 66 b0 3c
       -0.07756738 0.024108695 -0.033944786 0.021533204
000190 14 22 5f bd 2d 88 5c bd 6e 82 64 bd 66 3c 8a bc
       -0.05447586 -0.053840805 -0.05578845 -0.016874503
0001a0 31 a4 93 bd 78 62 e7 3c 77 87 a0 ba 8c 6a 56 bd
       -0.072090514 0.028245196 -0.0012247403 -0.052347705
0001b0 31 58 20 bd d3 ca f3 bc a8 84 3e 3c be 91 74 bd
       -0.039146606 -0.0297598 0.011628307 -0.059709303
0001c0 68 cd a0 bb e5 3a b0 3c 48 31 4b bc 42 c4 45 bc
       -0.004907299 0.021512458 -0.012401886 -0.012070717
0001d0 04 34 13 bd cf 30 26 bd 4e 5e 95 bd 68 42 74 bd
       -0.035938278 -0.04057389 -0.07293378 -0.059633642
0001e0 79 c3 5a 3c ea 5f 03 3d c3 4c 91 3d 15 bc 54 3d
       0.013352268 0.032073893 0.07094719 0.05193718
0001f0 73 6a f3 3c b8 f3 0e 3c cc 05 74 bb 72 28 88 bd
       0.029713845 0.008725099 -0.00372349 -0.06648339
000200 02 28 91 bd 27 b8 9f bc 3c 6c f7 bc 3a a7 95 3d
       -0.07087709 -0.01949699 -0.030202977 0.073072866
000210 67 fa bd 3c 4f ce 32 bc 39 cc 24 3d 4d 98 5c bd
       0.02319069 -0.010913446 0.040233824 -0.053856183
000220 2f e3 11 3c 96 32 a1 3c 19 0e 65 bd 0d d3 7c 3d
       0.008904262 0.019677442 -0.055921648 0.06172471
000230 47 bc 4b 3d a8 da b3 3c 22 44 33 3c fd 3d 2a bd
       0.049740102 0.02195485 0.010941537 -0.041563023
000240 36 9a 2e 3d 7a 6e 72 3d 14 63 8e bd ae 0f 22 3d
       0.042627536 0.05918739 -0.069524914 0.039565735
000250 49 e8 a1 bc cc 79 7f 3d a4 2a da bc 4f ff 66 bc
       -0.019764083 0.062372014 -0.02663166 -0.014098956
000260 03 57 9b bd fb 94 6e bc 85 7e 05 3b be 50 fe bc
       -0.075849555 -0.014561887 0.00203696 -0.03104436
000270 5d 86 43 3d bd d0 50 3c 27 23 b7 3b f5 2d 8e 3d
       0.04773556 0.01274508 0.0055889073 0.06942359
000280 8a 28 bc bc 61 94 a5 bc 37 01 e0 3c 37 84 b6 bb
       -0.02296855 -0.020212354 0.02734433 -0.0055699605
000290 c7 a2 95 bb de c2 e4 3c d5 35 8b 3c 4d 0b 67 bd
       -0.0045665237 0.027924951 0.016993443 -0.05640726
0002a0 63 68 64 3d 1f 1f d6 3c 3d a7 5b 3c 3f 9d 89 bd
       0.055763613 0.026137887 0.013406572 -0.067194454
0002b0 c8 d7 0b bd 52 e8 9d 3d 0f 26 ec 3c 60 f7 a0 3d
       -0.034141332 0.07710327 0.028826742 0.07859683
0002c0 a2 5d 41 3d c4 00 07 3c 95 dc 8f 3d 6d 67 1f bd
       0.047208436 0.008239929 0.070244946 -0.038916994
0002d0 92 d5 23 bd 27 80 fd bb bc 92 e2 bc ec 91 95 3d
       -0.0399986 -0.007736224 -0.027657859 0.07303223
0002e0 f7 71 83 bd 41 6a ee bb 23 a8 3c bd 05 1d 8a bd
       -0.064182214 -0.00727585 -0.046058785 -0.06743816
0002f0 85 93 2a 3d ca 24 49 3d 26 c2 24 bd 8d aa 80 3d
       0.04164459 0.04910735 -0.040224217 0.0628253
000300 07 32 24 bd 62 a9 4c 3c 77 01 c8 bc aa b7 6f bd
       -0.040086772 0.012491556 -0.024414761 -0.058524765
000310 d8 0c 94 3d f6 25 93 bb 00 72 cc bc 45 11 f3 3c
       0.07229012 -0.0044906093 -0.024956703 0.02967132
000320 76 31 7e 3d 93 4d bc 3c 90 be a7 bd 25 32 5a 3c
       0.06205889 0.022986209 -0.08190644 0.013317619
000330 93 0a c3 3c a5 e4 43 bc a1 b7 38 3d d5 59 e1 bb
       0.023808753 -0.011956369 0.045096997 -0.006877164
000340 8a 54 a5 3d 78 78 f6 bb f7 82 80 bd 29 62 99 3d
       0.08072765 -0.007521685 -0.062749796 0.07489426
000350 01 de 81 3d 9f 3d 13 bd 23 30 85 3d 0f 3d aa 3c
       0.06341172 -0.03594744 0.06503322 0.020781068
000360 f5 6d 84 3d 4f 31 92 bd 3d 47 92 3d b7 d1 84 3d
       0.06466285 -0.07138311 0.07142494 0.064853124
000370 e0 57 17 3c e9 1f 7a bd b7 ea 19 3c 97 ab 80 3d
       0.00923726 -0.06106559 0.009394339 0.06282728
000380 8d 9f 7b bd 37 e0 93 3d 3e c3 04 bd 97 17 54 bc
       -0.061431456 0.072205 -0.03241276 -0.012945077
000390 7d d9 94 3c fd dd 63 bc 02 47 01 bd a1 67 8c 3d
       0.018170113 -0.013907907 -0.03156186 0.06855703
0003a0 f6 50 12 3c c6 8a 55 3d 0e 2d 94 3d 47 ca e3 3b
       0.008930435 0.052134298 0.07235156 0.0069516036
0003b0 a1 9f 80 3d f9 c1 2d bd 10 4f 12 3d eb 63 8e bb
       0.06280447 -0.042421315 0.03571993 -0.0043454072
0003c0 fd 87 84 3b ca e6 9b bd b7 b1 4c bd 1a 58 2a 3d
       0.0040445314 -0.07612379 -0.04997417 0.041587926
0003d0 3a ee 96 3d 7f 5d 84 3d 18 f9 fc bc 4e 70 0f 3d
       0.07369657 0.064631455 -0.030880496 0.03501921
0003e0 e7 8b b7 bb 6a 47 a6 bd d0 e3 3a 3d c9 4e 12 bd
       -0.0056013945 -0.0811909 0.045627415 -0.035719667
0003f0 7e 09 80 bd eb a2 f4 bc 0b 27 a7 3d 52 45 72 bc
       -0.062518105 -0.029862842 0.08161744 -0.014787035

head.weight f4 [4, 147]
000000 9b ae 94 3d b6 ef 1e 3d 65 bc 5e 3d bb 64 6e 3b
       0.07259866 0.038802825 0.054378886 0.0036375958
000010 07 75 2f 3c 0d e0 86 bd d9 0f 96 3d 79 5f 2d 3c
       0.010709054 -0.06585703 0.073272415 0.0105818445
000020 f4 ef b9 bc 6c fc 75 bd 94 28 0c 3d d4 82 9c 3d
       -0.022697426 -0.06005518 0.034218386 0.07642141
000030 2f d9 05 3d cb 1d 3a 3c 8a 2b 54 bd 14 70 64 bd
       0.032677826 0.011359642 -0.051799335 -0.05577095
000040 62 1a c4 3c 4b 8f ca bb d4 3e 5d bd 0e 8b fb bc
       0.023938362 -0.0061816326 -0.054014996 -0.030705955
000050 9c 17 c2 3c df 21 8f bd da a6 ec bb ee c4 64 3b
       0.023692898 -0.06988882 -0.0072220387 0.0034907418
000060 15 e0 bb 3c b3 fd 75 3d 8b 5f 87 3d 50 fd 28 bc
       0.022934 0.0600564 0.0661002 -0.010314301
000070 78 05 62 bc cd 54 42 bd 99 0c fd bc e5 25 05 bc
       -0.013795249 -0.047444154 -0.030889796 -0.008126711
000080 e6 e1 4e bd 39 96 4a 3d 31 72 89 3d 96 4c 21 bd
       -0.050508402 0.04945967 0.067112334 -0.03937968
000090 9d a5 66 3b 0a 1d 92 bb 69 38 97 bb 18 0a b5 bc
       0.0035193928 -0.004459028 -0.004614879 -0.02209954
0000a0 a7 ee 54 bd 92 8d 82 bb 2e bb 08 bd 53 9d 88 3c
       -0.05198541 -0.0039841617 -0.033381633 0.01667658
0000b0 9a 46 29 bd b2 da c5 bc 40 22 7d 3d 02 1c 79 bd
       -0.041327097 -0.024152134 0.06180024 -0.060817726
0000c0 9a a6 75 3c 78 14 49 bc 52 56 47 3d 94 bc 13 bd
       0.014993334 -0.012272947 0.048666306 -0.036068514
0000d0 de 52 e6 3c 78 d4 8d bc 35 24 da 3b 70 0f 97 bd
       0.028115686 -0.017313227 0.0066571482 -0.07375991
0000e0 19 ed 04 3d f7 52 01 3d a8 bb 25 3b 7e f3 c9 3b
       0.032452676 0.031573262 0.0025288854 0.0061630597
0000f0 44 fa a7 bd d1 a8 01 bc 06 d0 8b bd 0e 37 3e 3d
       -0.08202031 -0.007913784 -0.06826787 0.046439223
000100 5e be 37 3d 72 55 a5 bd af 4e d1 3c f5 a2 48 3d
       0.044859283 -0.08072938 0.025550215 0.048983533
000110 06 9f 5c bd 73 3d 5b 3d af dc 3c bd f8 ec 73 3c
       -0.053862594 0.0535254 -0.046108898 0.014888041
000120 b4 76 3d bb 3d c8 a2 bc 92 11 90 3c ec 2f 64 3d
       -0.0028909864 -0.019870872 0.017586503 0.055709764
000130 ce 8e 5f bd 7a 3e 80 bd 47 10 57 bd be 6e 3a bc
       -0.05457955 -0.062619165 -0.052505758 -0.011378942
000140 dc e7 23 3d 06 1c 71 3d 06 1d 0d 3d 48 3a a9 bc
       0.04001604 0.058864616 0.034451507 -0.020657673
000150 b5 b9 27 3a af a4 21 3d 65 f5 28 3c 8f fe fc bc
       0.0006398217 0.039463695 0.010312413 -0.030883102
000160 86 6e cb bc 85 2a fa 3c af e5 ce bc 0c 2a 95 3d
       -0.024832975 0.030537853 -0.025256006 0.072834104
000170 e8 74 c9 bc 8d e1 89 3d 83 2e 4c bd f1 f1 10 3d
       -0.024591878 0.067324735 -0.049849045 0.035386983
000180 b2 a0 05 bd d7 f9 00 3a ff 09 e3 3c dc 39 a5 bd
       -0.032623954 0.00049200415 0.027714727 -0.080676764
000190 3b d0 52 bd 29 ac d6 ba 6c 2e 47 bc f9 c4 26 bd
       -0.051468115 -0.0016378212 -0.012157064 -0.04071519
0001a0 22 c0 ab 3c e0 68 80 bd 7e 03 6f bd f2 54 0d 3d
       0.02096564 -0.06270003 -0.05835294 0.03450484
0001b0 81 c4 ce bc b9 fe 9b bd 29 ba b0 ba 7f 15 00 3c
       -0.025240185 -0.07616944 -0.0013483214 0.007817625
0001c0 c1 90 24 3b b2 05 e8 3c 08 e4 a8 3c 0c 91 6a bc
       0.0025110694 0.028323028 0.020616546 -0.014316808
0001d0 1c 95 83 3d 7a 72 72 bc 81 bc dd bb e5 0d 2e bd
       0.06424925 -0.014797801 -0.006766856 -0.04249372
0001e0 97 f8 7a bd 8f a8 de bb 47 1b 37 bc 1d 04 5e bd
       -0.06127223 -0.006794996 -0.011175937 -0.05420314
0001f0 08 93 4c bc 73 5e 91 bd 07 4f 52 bc fe 5d 57 bd
       -0.012486227 -0.07098093 -0.012836224 -0.052579872
000200 65 5b 12 bc f5 b5 8b 3d f0 41 b4 bc 5f 54 7f 3d
       -0.008932923 0.06821815 -0.022004098 0.062336322
000210 90 c7 a7 3b 9a 68 76 bd 9b 06 81 bd af d9 2f bd
       0.0051202253 -0.06015835 -0.06300088 -0.04293221
000220 95 07 27 bd 73 d3 1e bd dd d8 aa 3c a0 93 a6 3d
       -0.040778715 -0.038775872 0.020855362 0.08133626
000230 50 32 8d bc 1d ed bb bb 1e f4 93 3c 23 de 1f bc
       -0.017235905 -0.005735053 0.01806074 -0.009757551
000240 29 42 04 3d b1 24 2b 3d ce c7 00 3d d6 ac 33 bd
       0.032289658 0.04178304 0.03144055 -0.043866
000250 9b 93 96 3d 0a bf 1f 3c 68 d3 d2 bc a4 82 1e 3d
       0.07352372 0.009750137 -0.025735572 0.038698807
000260 63 cb 1d bd 1d 71 08 bc 0f f3 14 3d e0 e4 8b bd
       -0.038524043 -0.00832775 0.03636461 -0.06830764
000270 fa 29 b4 3c 05 bd 2b bd b3 45 37 3d dd aa 89 bc
       0.021992672 -0.04192831 0.044744205 -0.016805107
000280 1e e7 d5 3b a0 a5 9a 3d c3 00 4a 3d d2 ab da bc
       0.0065277955 0.07551122 0.049317133 -0.026693258
000290 74 00 79 3d ae ce 25 3d 7c 7a a2 bd 18 a7 2c bc
       0.060791448 0.04048031 -0.07933518 -0.010537885
0002a0 72 05 00 bd 3b 9d 3a 3d 1e c0 e2 3a db df 63 3d
       -0.031255193 0.045560103 0.0017299687 0.055633407
0002b0 37 1f e3 bb 6f 4e 87 bd e0 0a ff bc ef 56 54 3d
       -0.0069312113 -0.06606757 -0.031133115 0.05184072
0002c0 62 30 47 3d 56 9e 28 bc 2c dc 0e 3d 7f e9 cb bc
       0.048630126 -0.0102916565 0.03487794 -0.024891613
0002d0 dd c5 a0 3d 38 d3 64 3d 8f c2 04 3d 1f 58 ac 3a
       0.078502394 0.055865496 0.032412108 0.0013148821
0002e0 73 84 f6 bc b0 d2 1e 3d b4 7e 3d bc 27 45 96 bd
       -0.030092454 0.038775146 -0.011565853 -0.073374085
0002f0 7b d2 66 bb 87 9b a5 3d a4 24 ab 37 50 2a bc 3b
       -0.003522067 0.08086305 2.040185e-05 0.0057423487
000300 32 43 a4 3d d4 4b b5 bc 85 45 a1 bd 96 79 99 3d
       0.08020629 -0.022130884 -0.07874588 0.07493894
000310 42 95 d5 3c 21 01 8b bc 95 2f 26 3d 76 98 7c 3d
       0.026072148 -0.016968312 0.04057272 0.061668836
000320 64 6d 4c bd 24 64 06 ba d8 0a e3 bc 55 10 9c 3d
       -0.04990901 -0.00051266165 -0.027715132 0.076203026
000330 c1 8d 99 3d 08 bd 2f 3c 4c 50 b3 3b 27 1b 8e 3d
       0.074977405 0.010726221 0.0054722186 0.06938773
000340 a8 6a 7d bd 3b 00 0d bd 9f 6d 6f bd 17 a9 3e bd
       -0.061869293 -0.034424048 -0.058454152 -0.046547975
000350 a4 4c a2 bc bb 28 53 bd 18 7a 9a 3d e1 7f b1 bc
       -0.019811936 -0.051552515 0.07542819 -0.021667423
000360 0c 0a 9e bd c8 5f 78 bd 55 5a ec 3c 84 33 9b 3d
       -0.0771676 -0.06063822 0.028851667 0.07578185
000370 c1 12 9b 3d c2 0a 53 bd 66 6b d5 bb de b4 4b bd
       0.075719364 -0.05152393 -0.006513047 -0.049733035
000380 60 2a 90 bb 3e 0f 36 3d 60 15 61 3c 2f 37 9e bc
       -0.0043995827 0.04444813 0.013738006 -0.019313423
000390 3d 3d 34 3d a9 83 07 bd 9d 5a 83 bc ac 98 5f 3d
       0.044003714 -0.033084545 -0.016034419 0.05458896
0003a0 10 1b fc bc f9 9b 72 3d d0 6c 84 bd e3 ef 5d 3b
       -0.030774623 0.05923078 -0.06466067 0.0033864907
0003b0 0f 16 a2 3d de 73 88 bd 3d b2 42 3c ca 46 0d 3d
       0.079143636 -0.06662725 0.011883316 0.034491338
0003c0 2c 22 49 3d a7 dd 9f bd b0 e6 91 bc f4 7c 85 3c
       0.049104854 -0.07805949 -0.017810196 0.016294934
0003d0 69 a4 a0 3d 11 ad 40 bd 44 da 15 bd 01 fe 94 bd
       0.07843859 -0.04704005 -0.036585107 -0.0727501
0003e0 d4 da db bb 46 33 a2 3d 83 92 32 3d 28 51 da bb
       -0.006709436 0.07919936 0.043596756 -0.0066625066
0003f0 fe bf 55 3d 58 2b 96 3d 4b 5c 94 3d 41 80 54 bc
       0.05218505 0.07332486 0.07244166 -0.012970031

head.bias f4 [4]
000000 32 ef 76 bd d3 c8 2f 3d 08 e8 09 3d e6 ef 12 3c
       -0.06028671 0.04291613 0.033668548 0.008968329
